models/shape_classifier.pt (torch, 314383 bytes, 8 tensors)

conv1.weight f4 [12, 3, 3, 3]
000000 78 e5 2c be 85 8d 4c be c6 6f 39 3e 16 4f 2b be
       -0.1688441 -0.1997586 0.18109044 -0.16729388
000010 27 1d 4f be 15 d9 a5 3d 00 f2 76 3c db ed f0 bd
       -0.20225964 0.08098046 0.015072346 -0.11764117
000020 02 83 63 3c b9 b0 cd 3d 56 1e b5 bd 5d a9 4d 3e
       0.013886215 0.10043473 -0.08843677 0.20084138
000030 e1 5a e2 3d 2d 23 13 3e b8 a7 ea bc dd 83 80 3d
       0.1105249 0.14368887 -0.028644428 0.06275151
000040 5a 14 f9 bd ec 10 cb bd bb 0b 2c be 7e c7 9c bd
       -0.12162085 -0.09915337 -0.1680135 -0.076552376
000050 0d 97 46 be 66 dd d2 bd ee 77 3a 3d 7f f9 26 be
       -0.19393559 -0.10296135 0.04552453 -0.16306113
000060 98 3a 21 3e ad b3 fb bd 44 dc 88 bc 69 9d f0 3d
       0.15745008 -0.1229013 -0.016706593 0.117487736
000070 ed e9 c0 3d ec 1c e8 bd f5 27 2a be b8 eb 80 bd
       0.09419618 -0.113336414 -0.16616805 -0.0629496
000080 63 52 b3 3d 97 5a c5 3d 18 e0 23 3e 8c 7f 8f bd
       0.087559484 0.09636419 0.16003454 -0.070067495
000090 fd fa 02 be 56 d8 41 3e 8a dd 13 be 76 18 57 be
       -0.12791057 0.18930182 -0.14439979 -0.21005425
0000a0 ed f8 1a be 60 6f 1f bd 18 9a 52 be 02 61 1b be
       -0.1513402 -0.038924575 -0.20566595 -0.15173724
0000b0 60 37 ad 3d d9 f8 34 3e ca ef 2f 3e e9 f5 30 3e
       0.084578276 0.17673053 0.17181316 0.17281307
0000c0 77 17 a7 bc 1a f6 be bd a1 16 8e 3d 6d 23 ce 3d
       -0.020396931 -0.09324284 0.0693791 0.10065351
0000d0 1a c4 b0 3b fe 0f 1d bd 5c 90 de 3d 84 38 10 be
       0.005394471 -0.03834533 0.10867378 -0.14084059
0000e0 5b e9 2a bd cd c9 76 3c d4 3e 99 3d a7 e3 27 be
       -0.04172645 0.0150627615 0.07482687 -0.16395436
0000f0 5d a2 95 bd 6d 24 59 be 4e 96 52 be cd f3 f1 bd
       -0.07306359 -0.21205302 -0.20565149 -0.118140794
000100 20 a1 da 3d 8d b2 98 3d 19 78 a5 bd 54 3f d5 ba
       0.106752634 0.07455931 -0.080795474 -0.0016269484
000110 aa 40 15 3e b7 66 13 bc fe 73 3d 3d 05 8d d7 3d
       0.14575449 -0.008996657 0.046253197 0.10524944
000120 14 bb 1f 3e 26 f6 01 3e c4 d6 51 3e 10 c9 18 be
       0.15598708 0.12691554 0.20492083 -0.1492045
000130 39 c2 9a bd 40 32 2e 3c 6f 0d 3f be 66 fa 13 be
       -0.07556576 0.010632098 -0.18657468 -0.14450988
000140 6f 82 26 3e e7 17 19 3d 6c 27 13 3e ab 71 17 bd
       0.16260694 0.03737631 0.14370507 -0.036973637
000150 f7 5e 45 bd 0e 5f 06 3d 62 06 2e be b0 3f 43 3e
       -0.04818627 0.032805495 -0.16994622 0.19067264
000160 0c 4f d6 bd f8 14 f4 3d ac 6d cf 3c d1 62 25 be
       -0.10464296 0.11918062 0.02532085 -0.16150977
000170 29 c3 e0 3b 80 80 12 3e 09 83 eb 3d 24 47 1f bd
       0.0068592024 0.14306831 0.11499602 -0.038886204
000180 6f 3e e3 bd 8a 2e d7 3d 88 58 fc bd 38 31 41 3d
       -0.11095893 0.105069235 -0.123215735 0.04716608
000190 32 ca 58 be c0 30 58 be ca 70 07 3e 9a 18 f3 3d
       -0.21170881 -0.21112347 0.1322662 0.11869927
0001a0 94 e7 12 be 7e fb bb 3d be bb e1 3d 07 f0 2c 3e
       -0.14346153 0.09178828 0.11022137 0.16888438
0001b0 ab 9b ae bd c9 a4 17 be 41 cc 03 3e cf bf e5 3d
       -0.08525785 -0.14808954 0.12870885 0.11218225
0001c0 c8 77 0b 3e 75 bc 57 3d b5 5e 43 be 4e b1 8d 3d
       0.13619912 0.05266996 -0.19079097 0.06918584
0001d0 09 54 24 3e c3 45 18 be fe b2 98 3a 40 d9 db bd
       0.16047682 -0.14870362 0.0011650024 -0.107347965
0001e0 fe 4f 08 be 22 cc 97 bd 82 a7 3c 3e 51 d5 3b be
       -0.13311765 -0.07411982 0.18423274 -0.18343093
0001f0 14 e6 1d be 45 59 91 3d cd 77 02 3e 3b 91 38 be
       -0.15419799 0.07097105 0.12741013 -0.18024151
000200 ba a3 1f 3e 05 b7 bb 3d 87 16 12 3e 0a b4 b2 bd
       0.155898 0.091657676 0.14266406 -0.08725746
000210 7b cc b3 3d 88 fa de 3c 9a 92 bb bd 3a 78 3a 3e
       0.08779236 0.027219072 -0.091588214 0.18209925
000220 92 0e 48 bd 27 cb 3d 3e 4a 92 00 3e 58 63 19 3e
       -0.04884202 0.18534528 0.12555805 0.14979303
000230 17 e1 31 3d a5 a8 3c be 99 fd b2 bd 92 d5 0e 3d
       0.043427553 -0.18423708 -0.08739776 0.034871645
000240 33 03 5d 3d 0c 4f 27 be 00 a8 56 bc aa ea e7 3c
       0.05395813 -0.16338748 -0.013101578 0.028310139
000250 38 52 33 bd 8d 72 b3 bc cf 17 01 3c d5 cf 2a 3e
       -0.04377958 -0.021905208 0.007879212 0.16680844
000260 07 5b 79 3c a5 39 3b bb 4b 1a 10 3e 02 b9 d9 3d
       0.0152194565 -0.0028568294 0.1407253 0.106309906
000270 6a 6b bd 3d bd 0b 90 3d 6c f6 5c 3d d1 62 f1 3d
       0.09249003 0.07033489 0.053945944 0.11786426
000280 52 42 fe bc e8 92 33 3d 4c bd c6 3d 6c 02 ff bc
       -0.031037483 0.043841273 0.09704074 -0.031129085
000290 96 44 92 bd b7 dd 35 bd 15 80 27 3e 45 34 c2 3d
       -0.07141988 -0.044400897 0.16357453 0.09482626
0002a0 2d bb 19 be a9 4a 9c bd 0d bd fb bd 6c 48 8e bd
       -0.15012808 -0.07631428 -0.12291918 -0.06947407
0002b0 8a 2f 0d ba 1e 4b 4a bd 7a 63 91 bc 18 26 93 bc
       -0.0005385807 -0.049388044 -0.01774763 -0.0179625
0002c0 b8 e4 b4 3d 6c 0b f0 bd 0c 08 63 be 30 8d 65 bb
       0.08832687 -0.117209285 -0.22171038 -0.0035026781
0002d0 ac de da 3d 74 5c fc bd 09 39 c9 3d 89 a7 29 3e
       0.106870025 -0.123223215 0.09825332 0.16567816
0002e0 7e be 37 3e 6a 56 e2 bd 63 c2 06 3d cd 4f c5 3d
       0.17943761 -0.110516384 0.032900225 0.096343614
0002f0 8c 4c 56 be 9e 02 09 3c 55 12 e1 3c 0b ba 3d be
       -0.20927638 0.00836244 0.027474562 -0.18528001
000300 76 61 39 3d f1 24 9c 3d ab 03 07 bd 75 d1 c7 3c
       0.04525896 0.076242335 -0.032962482 0.02439187
000310 89 c8 bc bd 7f 91 9c 38 03 93 27 3e d6 83 24 bd
       -0.092179365 7.4657604e-05 0.16364674 -0.04016479
000320 dc f2 cb bd 8d 1f c1 3d bb 7a 29 be 6a 6e ee bd
       -0.09958431 0.09429846 -0.16550724 -0.116421536
000330 4f 11 23 3d d9 1f 44 3e dd 96 14 3e 3f 87 ac 3d
       0.03981143 0.19152774 0.14510675 0.08424234
000340 e0 d3 30 3d e9 d1 2c bd 54 b8 03 3e 5f aa 3b be
       0.04317081 -0.042192373 0.12863284 -0.1832671
000350 79 01 24 3e 82 ed 14 be 5f 8a 22 3e c6 e2 a1 bd
       0.16016187 -0.14543727 0.15873097 -0.07904582
000360 1c 24 97 3d 2e 71 2b be fa 90 df bd cd 9e 66 3b
       0.07379934 -0.16742393 -0.10916324 0.0035189867
000370 18 3d 1e bc e5 77 db bd ad 59 a9 bd 2f 72 bd bd
       -0.009658121 -0.107162274 -0.082690574 -0.092502944
000380 ec 97 6c 3d d9 99 47 3e 11 6f ab bc 36 47 2d be
       0.05776207 0.19492282 -0.020926984 -0.16921696
000390 32 09 8d 3c 5b ca dc 3d 13 de 38 bc 2e 71 52 3d
       0.017216299 0.10780784 -0.011283415 0.051377468
0003a0 33 6c 12 be 7f f8 a2 3d 14 f5 3b 3e 54 48 a5 bd
       -0.14299087 0.07957553 0.18355209 -0.08070436
0003b0 b8 65 1e 3e 13 41 55 3e 6c 08 fd bc 6c ce 3d bd
       0.1546849 0.20825605 -0.030887805 -0.046339437
0003c0 9c 38 cf 3c c4 e5 b4 bd 80 53 f0 3b 40 1c 43 3c
       0.025295548 -0.08832887 0.0073341727 0.011908591
0003d0 e3 c6 72 bd 99 f8 65 bd ea cc 54 3e ef e9 29 be
       -0.059271704 -0.056145284 0.20781294 -0.16593145
0003e0 20 52 01 3e 9b f3 70 3e 2a 0b 7c bd 90 3a 0e be
       0.12628984 0.23530428 -0.061534084 -0.13889527
0003f0 3c f4 27 be 00 d7 12 be b0 f0 15 be 1d 59 54 3e
       -0.16401762 -0.14339828 -0.14642596 0.20737119

conv1.bias f4 [12]
000000 8c 5e fa bd 72 ab 0f be f1 77 a8 3d b5 f5 41 bd
       -0.12225065 -0.14030245 0.08226002 -0.047353465
000010 95 81 08 bc af b9 4e be d7 47 40 3e 94 68 05 be
       -0.008331676 -0.2018802 0.18777405 -0.13028175
000020 29 2a 32 bc 4e 5e ca bd 75 e8 74 3e 44 41 11 3d
       -0.01087431 -0.098812684 0.239168 0.035462633

conv2.weight f4 [12, 12, 3, 3]
000000 73 85 2b 3d a7 a6 95 3d 26 4f a6 39 0d 85 68 bc
       0.041875314 0.07307177 0.00031720957 -0.014191878
000010 7d d9 c6 3d 24 56 87 3d 20 74 92 3d 1f 75 3d 3d
       0.09709451 0.06608227 0.07151055 0.046254274
000020 32 96 46 3c a2 ca d0 3d 61 b3 64 bb f4 ad 12 bd
       0.01212077 0.10194899 -0.0034896957 -0.035810426
000030 2d fb 9b bd 29 cb af 3d 35 7e f3 3d 48 60 7d 3d
       -0.07616267 0.085836716 0.118893065 0.0618594
000040 75 a3 b8 bc 74 6f b5 3d 9c 59 aa 3d 8d 6f b5 3c
       -0.02253888 0.088591486 0.08317873 0.022147918
000050 88 19 3a bd 7a c9 84 3d 73 e2 1f bd e5 b6 e1 3d
       -0.045434505 0.06483741 -0.03903432 0.110212125
000060 2d 23 9a bd a1 2a af 3d cd ae 3a 3d 13 cc 55 3c
       -0.075262405 0.08553053 0.04557686 0.013049143
000070 f1 0b 95 bd e6 ad 8e bc 12 a4 a6 3d 6d 3f 27 3c
       -0.07277668 -0.017416906 0.08136763 0.010207993
000080 72 a7 f9 bc 54 8d 99 3d a9 4b 13 3e 15 51 b6 3b
       -0.030475352 0.07497659 0.14384331 0.005563865
000090 70 05 1f bd 43 0a 88 bc bd 06 d9 3d 25 b2 35 bc
       -0.038823545 -0.016606456 0.10596988 -0.011089836
0000a0 35 9b eb 3d a9 26 ed bc 65 99 61 bd bf 1b ac 3c
       0.11504213 -0.028949099 -0.05507793 0.021009324
0000b0 b0 c5 1b bd 9a e5 46 3d 9e 22 2e bd a4 c1 9c bd
       -0.038030326 0.04855881 -0.042513482 -0.076541215
0000c0 4f 40 7e bc 95 c7 9d bd 5a 35 49 bd 53 3e 5d bc
       -0.015518262 -0.07704083 -0.049123146 -0.013503629
0000d0 0c 73 9b 3d 67 1b da 3c 6b f2 e8 ba e8 e7 36 3d
       0.07590303 0.026624395 -0.0017772441 0.044654757
0000e0 83 d4 92 3c 92 22 d6 3d 79 43 89 3d f3 c8 f8 3b
       0.0179236 0.104558125 0.067023225 0.0075923144
0000f0 f7 03 03 3b f2 5a c2 3d 87 d2 32 3d c1 c1 f0 bc
       0.0019991377 0.09490003 0.043657806 -0.029389264
000100 3d 6e a5 3c 7d bc bf bd 90 46 cb 3b 2a 1e 91 bd
       0.020194167 -0.09362123 0.00620348 -0.070858315
000110 83 8e 7f 3d 01 36 a2 bb 06 51 37 3d d5 42 90 3d
       0.06239177 -0.0049502854 0.044755004 0.07043997
000120 a3 08 a5 3d d2 11 b1 bd f7 fd cc 3d 04 e9 8f 3c
       0.08058288 -0.08645977 0.100093774 0.017567165
000130 65 9e c9 3d df 45 e1 3d f5 fc fd 3d 43 8e 2e 3d
       0.098446645 0.10999655 0.12401763 0.04261614
000140 a7 78 c6 3d 64 7e 14 bd 11 11 a4 3d f8 9f e7 3d
       0.09690981 -0.036253348 0.08011068 0.113098085
000150 d0 3f 04 3e b6 9b e0 3d 1e 6d c0 3c 47 16 ab 3d
       0.12914968 0.109671995 0.023489531 0.083538584
000160 6e 58 c9 3d 53 b7 fc bb 02 19 a8 3d 83 67 2b bd
       0.0983132 -0.0077122836 0.08207895 -0.041846763
000170 93 d5 f7 3d 69 ad c0 bc ec 60 0d bc 12 f3 a5 3d
       0.12101283 -0.023520188 -0.008629065 0.081030026
000180 48 6a 3c 3d bd 1c 85 bd 71 e0 57 3c 8e 0e 6f bd
       0.045999795 -0.06499622 0.01317607 -0.05836349
000190 15 13 72 bd dd bb 8f 3d 28 40 a6 3b 27 7f aa 3d
       -0.05910023 0.07018254 0.005073566 0.08325034
0001a0 31 4c 7e bb 05 3b b5 bd 5c e1 87 3c b1 ad 03 3d
       -0.0038802738 -0.08849148 0.016586952 0.032148067
0001b0 a5 aa 77 3d 68 3d a8 3d a7 a9 96 39 92 0d 56 bd
       0.060465474 0.08214837 0.0002873663 -0.052259035
0001c0 cb e2 a1 bc cf 1a 5e bb 1d 69 e2 bd 03 2c 08 3c
       -0.019761464 -0.003389049 -0.11055205 0.008311274
0001d0 c2 21 45 bc 26 c7 9e bc fb 2b 66 bd 3d 6f 66 3d
       -0.012031974 -0.01938207 -0.056194287 0.05625843
0001e0 fd b7 ab bc f5 c3 07 3d a0 c8 be 3b 7b 51 9e bd
       -0.020961756 0.033145864 0.005822256 -0.07730385
0001f0 97 82 91 3d 64 ac df bc 5a 7e 17 bd 5f 0a a3 bd
       0.07104986 -0.027303882 -0.036985733 -0.079609625
000200 8b 96 7b bd 0e 40 4b 3d 66 02 49 bc 91 31 ae 3d
       -0.061422866 0.049621634 -0.012268638 0.08505548
000210 09 91 13 bc ad b9 f1 bd 50 eb 1b bc 3a 05 e5 3d
       -0.009006747 -0.11802993 -0.009516552 0.111826375
000220 da 21 a3 ba ef 87 88 bd 08 76 f6 3d 78 ca 03 3e
       -0.0012446002 -0.06666552 0.120342314 0.12870204
000230 b7 73 9b 3b f5 76 a7 3b 2c cb 79 3c ae b7 3c 3d
       0.004744019 0.0051106163 0.015246194 0.046073608
000240 c4 39 9b 3d df 1a 95 3d bb 9a 9e 3c 55 e9 ba bb
       0.07579377 0.07280516 0.01936089 -0.005704085
000250 e1 2b e5 bc 88 a4 fa bc 5b b4 06 3d 7d 90 e6 bc
       -0.027975025 -0.030596033 0.032886844 -0.02814507
000260 33 b9 a0 3d 2c 27 d1 bc 01 61 32 bd 6a 56 4d 3c
       0.07847824 -0.025531374 -0.04354954 0.01253281
000270 78 ea c1 3d 9a 75 ac bd db 67 76 3d 3b 6a 1a bd
       0.094685495 -0.08420868 0.060157638 -0.037698966
000280 87 f0 98 bb 67 2c 7d bd 42 d7 19 bc 54 7f b0 3c
       -0.004667345 -0.061809923 -0.0093897 0.02154509
000290 8c 15 84 3d 73 26 40 bd 60 8d e4 bd d7 21 c1 bc
       0.06449422 -0.046911668 -0.11159778 -0.023575706
0002a0 2d e7 03 3c a7 ea a6 bc 26 2d b5 3c 0d 0d cf 3d
       0.008050722 -0.020375563 0.022116255 0.10109911
0002b0 9d 06 86 3d 4b 1b 8e 3d cd 30 09 3d 09 54 b3 3d
       0.0654423 0.069387995 0.033493806 0.08756263
0002c0 1a 38 74 bd b4 ed 83 bd d3 95 f6 3d c9 c0 d4 3d
       -0.059623815 -0.06441823 0.120402955 0.10388333
0002d0 07 99 2f 3d 49 08 2c 3d 0f c5 ab bd c6 ee fc 3c
       0.042870548 0.04200009 -0.08387195 0.030875575
0002e0 c5 b5 ff 3d 78 42 64 3d 6e 66 32 bd f3 4b f0 3d
       0.12485842 0.055727452 -0.043554716 0.11733236
0002f0 44 d9 b0 3d a5 bc 50 3d d6 59 d6 3d d8 8d 6e 3d
       0.0863519 0.050961155 0.104663536 0.05824074
000300 4c 6f 46 3d a0 1f 2f 3d 76 b7 d9 bb 09 bf e6 bb
       0.048445985 0.04275477 -0.0066441847 -0.007041816
000310 46 11 ff 3c 00 0e 8a 3d e7 ba 21 3d d1 53 93 3c
       0.031136166 0.067409515 0.039484885 0.017984303
000320 33 e3 44 3d 8b c8 3f bd 7d 68 e1 bb 8b 86 53 3d
       0.048068237 -0.046822112 -0.006878911 0.051641982
000330 b0 01 5f 3d b8 bb 9f bb 7f d7 df bc c6 6d d8 bd
       0.05444497 -0.0048746727 -0.027324436 -0.105678126
000340 ad 75 76 3d 2f 7b 71 bd 4c 88 80 3d 61 85 4b 3d
       0.060170818 -0.058955368 0.062759966 0.049687747
000350 6e fb 2e 3d 20 07 9f bd fc 43 01 be 5b b6 6a 3c
       0.04272025 -0.07765031 -0.1262359 0.0143257035
000360 d0 20 44 bc 04 00 57 bd 58 f4 4d 3d 02 bd 8d 3d
       -0.011970714 -0.05249025 0.050281852 0.06920816
000370 92 79 cf 3d 9a 3e 8a 3d 0e 10 1d 3c d0 61 a7 3d
       0.101306096 0.067502216 0.009586347 0.08172953
000380 cb 52 92 3d 40 4d 7e bc 28 1d 92 bc 19 df e2 3d
       0.07144698 -0.0155213475 -0.017836168 0.11077709
000390 fb f4 61 3d ba db 54 bd fd 51 57 3c b3 12 e1 3d
       0.055165272 -0.05196736 0.013142106 0.10989895
0003a0 65 7d 55 bd 48 e1 01 3e c7 5c 8b bc b0 7c 8d 3d
       -0.05212154 0.12683594 -0.017012013 0.06908548
0003b0 8b 81 de 3c a3 f7 fe 3d 98 40 df 3d 3e 5f 0a 3e
       0.02716138 0.12449577 0.10900992 0.13512895
0003c0 17 03 9c 3d cb 59 5f 3c ee 05 d6 3d a5 8c 36 3d
       0.07617777 0.013632248 0.1045035 0.044567723
0003d0 59 47 9f 3d 06 0e c2 3c 60 1e 75 3d bf 51 3b bd
       0.0777728 0.023688328 0.05984342 -0.045732256
0003e0 9c 0a 67 3d 50 d8 d8 3b ec 21 62 3d b6 62 0d bc
       0.056406602 0.0066175833 0.05520813 -0.008629492
0003f0 62 2d 9c 3d d7 33 fb 3d ed d3 cd 3d 23 69 a6 3d
       0.076258436 0.12265747 0.10050187 0.08125522

conv2.bias f4 [12]
000000 11 c2 5c 3d 7b 0a 24 bd 96 19 f0 3d 8d 8b 18 3d
       0.053896014 -0.040049057 0.1172363 0.03724246
000010 15 e2 09 3c 0a 44 40 3c ae 40 9d bd 3f c8 88 3d
       0.008415719 0.011734972 -0.07678352 0.06678819
000020 99 fa 05 3b c4 cd 83 bd 1a a1 40 3d 44 d6 28 bd
       0.0020443557 -0.06435731 0.04702864 -0.041219965

conv3.weight f4 [24, 12, 3, 3]
000000 43 f9 9d bd 1d b7 82 3d dd 87 af bc 0e 04 84 3d
       -0.077135585 0.06382582 -0.02142709 0.06446086
000010 f6 02 e0 bb c4 11 b7 3b a1 a2 d1 3c b5 27 09 bd
       -0.0068362905 0.0055868346 0.025590243 -0.033485133
000020 10 63 8e ba 69 4f 8d bd 20 4b 4b bc 07 ec 57 bd
       -0.0010863263 -0.06899912 -0.012408048 -0.052715328
000030 24 73 84 3b ca fb 68 3d 96 ab af bd 78 47 43 bc
       0.004042046 0.05688075 -0.08577649 -0.011918895
000040 9c f3 0c bd 1a 19 9b bd d5 3f 9f 3d 8e 21 68 3d
       -0.03441201 -0.07573147 0.07775847 0.056672625
000050 e1 23 6d 3d a9 da d4 3d 6a 08 50 3d ef 9b 81 bc
       0.057895545 0.103932686 0.050789274 -0.015821425
000060 71 82 77 ba fe 8a 84 bd 1f 27 c2 3d 8a 84 d8 3d
       -0.00094417395 -0.06471823 0.09480118 0.10572155
000070 ec 8c 2d bc 40 38 e5 bc 7d 7d 80 bd 89 e5 3e bd
       -0.01059268 -0.027980924 -0.06273935 -0.04660562
000080 83 00 1a bd 35 ae ec 3b d6 42 26 3d 61 04 4b bd
       -0.037598144 0.0072229155 0.040591083 -0.049564723
000090 73 e7 7e bd 46 36 a2 3d 94 88 fc 3c 7f 6d b0 3b
       -0.062232446 0.07920508 0.030826844 0.0053841467
0000a0 c2 89 13 bd 09 02 72 3d 08 18 f8 3b ab 4b b1 3d
       -0.036020048 0.059083972 0.007571224 0.08657011
0000b0 c1 91 6b bd ce 6b 40 bd d9 20 95 3d 9d 8f 1a 3d
       -0.05751205 -0.04697781 0.07281656 0.037734617
0000c0 39 6b 2f bc c6 b5 d3 bc fe 7c 2d bb 20 6f dd bb
       -0.010706716 -0.025843512 -0.0026472206 -0.006757632
0000d0 66 c1 96 3a 37 d5 85 3d af ae 53 3d e9 3c 5b bd
       0.0011501729 0.06534808 0.051680263 -0.053524885
0000e0 99 5f e5 bb ee 69 17 3a 71 0a 69 3c 29 af 8c 3d
       -0.0069999215 0.00057759776 0.014223681 0.06869347
0000f0 89 85 be bd 27 9f 6f 3d 13 c1 a9 3d f4 93 31 3d
       -0.093028136 0.05850139 0.08288779 0.04335399
000100 74 b9 97 bd 85 5e c4 3d a1 91 0b bd 4e f7 f2 bc
       -0.07408419 0.09588341 -0.03407443 -0.02965894
000110 60 2d a0 bd 75 29 a0 3d f1 4d 95 3d 67 0e 6c bd
       -0.078211546 0.07820407 0.07290257 -0.057630923
000120 e0 18 93 3c 9f e0 0d 3d ba fb 6d 3d cd e1 ad 3d
       0.017956197 0.034638043 0.058101393 0.08490334
000130 1e 5b bc 3d 45 dc 1a bd c1 e7 25 3d d2 43 ce 3d
       0.09197067 -0.03780772 0.04050422 0.100715294
000140 b4 42 35 bb 04 9d 34 bd f6 95 a3 bd 33 ae f9 bc
       -0.0027658166 -0.044095054 -0.07987587 -0.030478572
000150 f9 7c 9f bd c2 a0 d0 bc 31 10 9d bd 3e ce 4f bd
       -0.077875085 -0.02546728 -0.07669104 -0.050733797
000160 66 42 08 bc bb ef 50 3d a1 8f 38 bc f1 f2 9a bd
       -0.008316612 0.051009875 -0.011264713 -0.07565869
000170 a2 13 6c 3c c5 e9 44 3b 4b 32 7a bd 64 8b c5 3d
       0.014408978 0.0030046564 -0.06108312 0.09645727
000180 c5 e4 78 3c 83 88 f0 bc 51 2d ee 3d c0 56 4a 3c
       0.015191262 -0.029361969 0.11629737 0.012349784
000190 53 88 fb 3c 7e 15 80 3d ff b6 01 bc 91 b3 b9 bb
       0.030704653 0.06254099 -0.007917165 -0.005667158
0001a0 cb 67 b0 bd 9c a4 3f bd a5 55 55 bd d2 7e d2 3c
       -0.08613547 -0.046787843 -0.05208363 0.025695238
0001b0 7e 75 c4 3c e8 5f 84 3b ae a7 22 3c cb c5 65 bd
       0.023981806 0.004039753 0.009927673 -0.056096833
0001c0 7f 5b 82 bd bf 7e e1 bd e7 41 5a 3d e7 fe 2d 3b
       -0.06365108 -0.11010503 0.053285506 0.0026549639
0001d0 cc 23 71 bc bc 0f b2 bb 3b ed fd bc 92 a5 b8 bd
       -0.014718007 -0.0054340046 -0.03099691 -0.09015955
0001e0 c0 3a b6 bd 1d 70 96 3d 3c 01 14 3d c6 07 97 3c
       -0.088979244 0.07345603 0.03613399 0.018436324
0001f0 c6 cd 98 bc 0e 95 68 3c d1 b8 aa 3d be eb 8a 3c
       -0.018652808 0.014195694 0.08336032 0.016958114
000200 38 78 f9 bd eb 44 ab 3d ab 9a 35 bd 72 30 15 3c
       -0.12181133 0.083627544 -0.044336956 0.009105789
000210 c1 b9 15 bd f8 2c e4 3d ec 55 fa 3c ce 43 7d bd
       -0.0365541 0.111413896 0.030558549 -0.06183224
000220 74 52 28 3c d7 7e 27 3d 6d 73 93 bd e9 c5 8a bd
       0.010273565 0.04089245 -0.0719975 -0.067760296
000230 cf 2b c4 bd 38 e1 46 3d f7 10 4a bb 6a b2 6b bc
       -0.09578668 0.04855463 -0.0030832866 -0.014385799
000240 58 cb e1 3c 71 10 9f 3d 5c 57 4a bd aa 4b dd bb
       0.027562782 0.07766808 -0.04939972 -0.0067534046
000250 c2 b8 ce bc 45 66 98 bd a8 33 c6 3d fa ae 0e bd
       -0.025234584 -0.07441381 0.096778214 -0.03483484
000260 71 16 d3 3c 04 77 30 3d 9f 55 92 3d 61 43 92 bd
       0.025767537 0.043082252 0.07145237 -0.07141758
000270 9e 16 15 bd e0 9e ed bc e5 8d f7 3c 75 67 9b bc
       -0.036398523 -0.029006422 0.030219028 -0.01897023
000280 20 da f1 bc 97 95 a3 3b 1d 6b cb 3d 15 98 a2 3d
       -0.029522955 0.0049921977 0.099325396 0.079391636
000290 1a 29 de 3c 1a 4f 5b 3d 1e c3 7e 3d 6f 41 4e bd
       0.027119208 0.053542234 0.062197797 -0.05035537
0002a0 13 77 2e bc 7b b3 9a 3d 73 2c a1 3c f9 05 25 bd
       -0.010648507 0.075537644 0.019674515 -0.0402889
0002b0 36 ab f5 bc 52 e3 ad bd 31 ee fe 3c 01 9e 7e 3d
       -0.029988866 -0.084906235 0.031119438 0.062162403
0002c0 3f b8 5c bd 73 3a 5b bd 1f e6 43 bd 9d e2 32 bd
       -0.05388665 -0.05352254 -0.047826882 -0.043673147
0002d0 98 44 d1 3c 0f 0b ff 3c 4e 78 74 bd 03 3c 1f bd
       0.025545403 0.031133203 -0.059685044 -0.03887559
0002e0 48 70 06 bc 93 c0 5c 3b 60 60 5f bc d2 89 48 3d
       -0.008205481 0.003368412 -0.013633817 0.04895956
0002f0 5f 45 8d bd df 24 63 3d c3 6c 04 bd 16 9b 95 bc
       -0.06897997 0.055455085 -0.032330286 -0.018262427
000300 f5 f6 22 bd d6 41 bd bd 7a be a2 bd 93 33 76 3d
       -0.039786298 -0.09241073 -0.07946487 0.06010778
000310 0f a4 36 bd 3b 4d 94 bd b7 fc e0 3d 13 66 84 bd
       -0.044590052 -0.07241293 0.109857015 -0.064647816
000320 12 bf 8b 3d e6 56 fa 3c 36 ca 37 3d b7 df 69 bd
       0.06823553 0.030559015 0.044870578 -0.057098117
000330 bb 22 2a 3d e0 34 7f bd 54 22 b2 3d f0 76 ac 3d
       0.041537028 -0.062306285 0.08697954 0.08421123
000340 4e 22 f6 3b 41 6f 6c 3c fc e8 cd bd 07 ce 4b 3d
       0.0075114137 0.014430822 -0.10054204 0.04975703
000350 5f 7f 8c 3d b8 37 ad 3d a3 02 57 bd 82 a4 7c bd
       0.068602316 0.08457893 -0.05249275 -0.061680324
000360 f9 4a 94 3d 7c 65 65 3d 11 ca 5a bd bb 50 bb 3d
       0.072408624 0.056004986 -0.05341536 0.091462575
000370 6a 58 04 3d e0 73 a2 3d 68 49 69 3a be f7 00 3e
       0.03231088 0.07932258 0.0008899183 0.12594506
000380 59 b8 2e bd 13 37 81 3d f5 0d 97 3d 02 f9 d1 3c
       -0.042656276 0.06309333 0.07375709 0.025631431
000390 47 50 cc 3a eb 30 e1 bb 7a e5 70 3b b7 7a dc 3d
       0.0015587889 -0.0068722866 0.0036757872 0.107655935
0003a0 c6 8a 89 bd 9d 2d 00 bc af d0 48 bc ec 82 b0 3d
       -0.06715922 -0.007823375 -0.012256785 0.08618721
0003b0 86 09 db 3c 90 e6 8c 3d f9 a0 b1 3d fa 5f b6 3b
       0.02673794 0.06879914 0.08673281 0.0055656405
0003c0 33 f1 10 3c 33 b9 5e bd 64 0a f7 3d 1e 69 19 3c
       0.008846569 -0.05437584 0.12062529 0.009363441
0003d0 19 46 a6 bd 72 d6 9b 3d dc 6f f6 bc 3a ae af bd
       -0.08118839 0.076092616 -0.030082636 -0.08578153
0003e0 4e 71 55 bc 22 3b 13 bd 18 18 7c 3d 44 26 49 bc
       -0.013027502 -0.035945065 0.061546415 -0.01227719
0003f0 30 eb f5 bc 3a cc de bc b8 b3 88 bd 72 04 cd 3c
       -0.030019373 -0.027196992 -0.06674904 0.025026534

conv3.bias f4 [24]
000000 5a 84 50 bd cf 35 5b 3d 7b 9d b1 3d ab 25 96 3d
       -0.05090747 0.053518113 0.08672615 0.07331403
000010 1a 15 1c 3d 00 82 41 bc e1 d0 28 bc 4f 74 99 bd
       0.03810606 -0.01181078 -0.010303707 -0.07492887
000020 da f7 07 b8 63 07 32 bd a3 c7 8c 3d 76 3d 48 bd
       -3.2417338e-05 -0.043464076 0.06874015 -0.04888674
000030 61 05 a0 3d a4 33 8b 3d 9c f3 26 3b 56 51 08 bc
       0.07813526 0.06796959 0.0025474792 -0.008320173
000040 f9 68 a7 3d 65 49 2c bd 47 7c 08 bd 83 30 2e 3c
       0.08174319 -0.042062182 -0.033321645 0.010631683
000050 75 bd b6 3d f0 ca 0d 3d 31 9a 11 bd af 3a fc ba
       0.08922855 0.034617364 -0.03554744 -0.0019243563

fc.weight f4 [3, 24576]
000000 14 8b a6 bb 30 83 ea b9 4c 23 b4 3b 6c 2f 94 ba
       -0.0050824974 -0.000447297 0.005497372 -0.0011305637
000010 9a 9e 9b 3b 00 33 e1 3a 25 c9 c7 bb dc ec 16 bb
       0.0047491314 0.0017181337 -0.0060969763 -0.0023029363
000020 00 c6 29 3a 20 a7 a6 3b ff ef 95 bb 36 34 c6 3b
       0.00064763427 0.005085841 -0.004575729 0.0060487045
000030 f2 d9 90 3b 88 b0 86 ba d4 d1 f9 ba 74 32 52 3b
       0.0044205124 -0.0010275999 -0.0019059726 0.003207353
000040 ec f4 20 3b 9c 8a ba ba 98 5f bb ba c8 1a ca 3a
       0.0024560047 -0.0014231983 -0.0014295457 0.0015419358
000050 b0 b0 ed 39 d8 86 0f 3b 26 7d ac 3b 28 e0 0a 3a
       0.00045335805 0.0021900441 0.0052639423 0.0005297684
000060 e8 a2 29 3a 66 0a 1c bb 44 db 35 3b 00 c9 9f 37
       0.00064711133 -0.002380991 0.00277491 1.9047875e-05
000070 6b ec 39 bb 00 88 78 3b 48 ff e1 3a b6 75 7d bb
       -0.0028369676 0.003792286 0.0017242217 -0.0038674898
000080 3e b7 b1 bb f1 40 bd bc 6c 78 9e bc 7c 74 38 3b
       -0.0054234555 -0.023102256 -0.019344531 0.0028145602
000090 23 81 e7 ba 74 e1 f2 ba 2c a4 a1 3b cb 1b a3 3c
       -0.0017662387 -0.0018530325 0.004932901 0.019910714
0000a0 d1 86 2b 3c ed de ac 3c 1c 12 10 3b 89 37 c0 bb
       0.010469154 0.021102393 0.002198345 -0.0058659953
0000b0 1e 03 ad bb 10 80 42 bc 2a dc cc 39 17 62 13 bc
       -0.0052799126 -0.011871353 0.00039073947 -0.008995554
0000c0 a8 7b 9e bb 71 21 c4 bb f1 6b ce bb f1 8d c9 ba
       -0.0048365183 -0.005985432 -0.0062994887 -0.0015377385
0000d0 df 6e 5c bb 5a e7 4d ba f2 b2 1e bb 5c 0b 79 3a
       -0.003363542 -0.00078546035 -0.0024215546 0.0009500289
0000e0 03 85 61 bb 6e 69 85 bb 75 1f 39 3c 0f 41 51 3c
       -0.0034411557 -0.004071406 0.011299004 0.012771859
0000f0 46 40 10 3c 8b ff fe 3b 60 0a cf ba ce 26 3c bb
       0.0088043865 0.007781928 -0.0015795939 -0.0028709653
000100 cc c5 b9 ba b3 27 89 bb 04 cd a5 bc bc 33 03 bd
       -0.0014173328 -0.0041856407 -0.02023936 -0.03203176
000110 6d ae 82 bc 56 e2 ff bc 01 18 4e bb 02 4c 82 3b
       -0.015952313 -0.031235855 -0.0031447413 0.003976346
000120 f1 34 a4 3c 69 1d 08 bc f1 c4 5b 3c 1e bf 29 3b
       0.020044776 -0.008307793 0.013413654 0.0025901268
000130 b2 35 30 bc a1 92 33 bb 45 65 b3 bb 9a 2d 61 3c
       -0.010754989 -0.002740063 -0.0054747188 0.013743782
000140 af 6f b8 ba 04 0f a5 3b 13 66 a1 bc 77 80 91 bc
       -0.001407137 0.0050371904 -0.019701993 -0.017761452
000150 bf ce 87 bb 4e 0b 02 bc 4c fb 72 3b dd 0d 6d 3a
       -0.004144519 -0.007937266 0.0037076054 0.00090428983
000160 64 3e 72 ba 67 b0 28 3c c8 62 5b 3b fa 0e 21 3c
       -0.00092408643 0.010295964 0.0033475626 0.009830231
000170 65 e8 ab 3b c5 f2 f2 39 63 fe f4 3b c0 08 43 3b
       0.0052462094 0.00046338714 0.0074766143 0.0029759854
000180 b0 16 64 ba f5 67 14 bc 19 b2 0a bd 5a a5 03 bd
       -0.00087008905 -0.009057988 -0.033861253 -0.032140113
000190 4c ca ee bc 13 3b 9f bc 6c bd c7 bc 73 26 24 bc
       -0.029149197 -0.019437348 -0.024382316 -0.010018933
0001a0 f3 29 15 3c 0f 45 06 3c dd 28 8e 3c 9e df 22 3c
       0.00910424 0.008195176 0.01735347 0.00994101
0001b0 f3 b2 90 3c 53 99 9f bb d6 92 46 3c 12 ee 7f bc
       0.017663455 -0.0048705726 0.012119969 -0.015620725
0001c0 fe 1b 0c 3a 0c 10 1a ba 9f 4a 64 ba 3b 5b 8d bc
       0.00053447473 -0.0005877025 -0.0008708629 -0.017255416
0001d0 de 00 be bc 4b 2e 2b bc cb 03 43 bc fc e8 6d bb
       -0.023193773 -0.010448049 -0.01190276 -0.00363022
0001e0 01 b5 3a 3b a4 35 d8 3b ac af 38 3c cf 6e 33 3c
       0.0028489234 0.0065981913 0.011272352 0.010951712
0001f0 2c 11 ae 3b 50 dd e4 3b f2 f9 f6 3b 9c 0b 3a 3b
       0.0053121056 0.0069843903 0.00753712 0.0028388267
000200 00 1c 57 3b 35 77 88 3c 7c 09 75 bc af 77 ba bc
       0.0032823086 0.016658405 -0.0149558745 -0.022762148
000210 34 e6 d3 bc 95 08 04 bd 79 f0 c0 bc 15 35 a3 bc
       -0.025866605 -0.032234747 -0.023552166 -0.019922772
000220 5c 4c 19 bc 86 6e 64 bb cd a7 02 3b cc 7f 95 3c
       -0.009356584 -0.0034855916 0.0019936443 0.018249415
000230 e4 43 2f 3b d1 2c 8b 3c 60 cf 4d bc 75 5f 35 3c
       0.0026743347 0.016989144 -0.012561649 0.011070122
000240 8e 9d 27 bb f2 08 2e 3c 49 b5 c4 3b 4b 37 03 3b
       -0.0025576088 0.01062225 0.006003056 0.002002197
000250 99 0d b0 bc c5 25 9b bc 8c 7c 6c bc 07 d2 92 bc
       -0.021490859 -0.018938908 -0.014433991 -0.017922414
000260 12 ab b9 bb 78 fd 04 3c 99 f4 09 3c b7 60 ee 3b
       -0.005666145 0.008117072 0.008420133 0.007274713
000270 e1 3e 3c 3c af 7e de 3b e9 79 b4 3b cc b1 30 3b
       0.011489601 0.006790004 0.005507697 0.0026961444
000280 26 30 b8 bb 75 f9 6d 3c 61 11 9c bc 04 fa bf bc
       -0.005620974 0.014524807 -0.019051256 -0.023434646
000290 b0 9e ae bc fb 3b a0 bc 0f 01 b3 bc db b6 94 bc
       -0.021315902 -0.01955985 -0.02185109 -0.018153599
0002a0 9f b8 a3 bb c9 6b 8b bb 02 5f 48 3c 57 de 52 bb
       -0.004996374 -0.0042547924 0.012229683 -0.0032175982
0002b0 1e ce 26 3c 33 dd 16 3b 02 3c e8 3b 73 9b 80 bb
       0.010180978 0.0023020029 0.0070872316 -0.003924781
0002c0 4e a4 87 3b 84 1c a5 3b f7 84 3d 3b fc 13 d4 b8
       0.0041394597 0.0050387997 0.0028918365 -0.0001011267
0002d0 9a 18 d5 3a ef e9 cc bb 00 81 99 bc cb 7b 5d bc
       0.0016257942 -0.006253473 -0.01873827 -0.013518284
0002e0 7b 0f 11 bc fd 0f ba bb 35 24 56 3b 5b 7a 18 3b
       -0.0088537885 -0.0056781755 0.003267539 0.002326629
0002f0 2b 8a 66 3b 5a 4a 3d 3c 8a 66 f5 3b b4 03 88 ba
       0.003517757 0.011553371 0.0074890302 -0.001037708
000300 1e b8 ae bb 91 61 9b bb 0b 37 0d bb 09 95 b4 bc
       -0.005332007 -0.0047418554 -0.00215477 -0.022043722
000310 a3 b4 52 bb 79 f6 6e bc 52 9d d4 bc ed 7a 17 bc
       -0.0032151125 -0.014585131 -0.025953922 -0.009245616
000320 03 00 c9 bb 37 7d 27 bc a8 46 1b 3c b6 ad 24 3c
       -0.0061340346 -0.010222725 0.009477295 0.010051182
000330 3e 7b 43 3b 90 00 6d 3c 9e fc 29 bc ed ef c3 bb
       0.0029828097 0.014465466 -0.01037517 -0.005979529
000340 65 a2 15 3b 92 de 67 3b d4 d7 df 3a 83 f6 0f 3c
       0.002283239 0.0035380465 0.0017077872 0.0087868
000350 ee 80 01 bb 77 bf 65 bc a5 21 61 bb 7a 38 ab bc
       -0.0019760686 -0.0140227 -0.003435233 -0.020900954
000360 1d 0c 25 bc dd bd 34 bc af 5f 16 3c cc b5 dd 3b
       -0.010073689 -0.011031595 0.009178086 0.0067660566
000370 34 0f 24 3c af ba 23 3c 31 21 7c 3b 60 b0 c6 ba
       0.01001339 0.009993239 0.0038471932 -0.0015158765
000380 46 d7 a6 bb ec 0f 66 3c 9e 33 df b9 da 04 51 3b
       -0.0050915806 0.014041882 -0.00042572332 0.003189376
000390 01 5f 5b bb 8b 33 1e 3b f9 cd f8 bb 78 40 0f 3b
       -0.0033473375 0.0024139609 -0.007592913 0.0021858495
0003a0 48 fd 28 bc cf 6d 79 bb df dc 15 3c d2 c1 28 3c
       -0.010314293 -0.0038059836 0.009146898 0.010300117
0003b0 b2 05 15 3c 2b 95 c2 bb d1 a6 84 3c f1 02 8b 3b
       0.009095596 -0.0059381924 0.016192826 0.004242294
0003c0 1c 29 03 bc 3a b3 23 3c 17 75 93 3b 6d cd 20 3b
       -0.008005407 0.009991461 0.004500042 0.0024536506
0003d0 ac 86 ed b9 00 80 7f 3b 94 4c a9 39 91 74 af bb
       -0.000453045 0.0038986206 0.00032291247 -0.005354472
0003e0 fb 3f ba bc 6b 17 8f bb 58 11 1e ba 05 7c 98 3a
       -0.022735586 -0.0043668053 -0.0006029806 0.001163364
0003f0 7f e9 54 3c ef 0b 20 3c 25 0b 23 3b 64 29 17 3b
       0.012995123 0.00976847 0.0024878469 0.0023065442

fc.bias f4 [3]
000000 9b 9e 04 3b bc 1c a5 3b 92 54 54 38
       0.0020236138 0.005038826 5.06235e-05
